Model: "sequential"
+--------------------------------------------------------------------------+
| Layer (type)                    | Output Shape           |       Param # |
|---------------------------------+------------------------+---------------|
| dense (Dense)                   | (None, 256)            |         4,608 |
|---------------------------------+------------------------+---------------|
| batch_normalization             | (None, 256)            |         1,024 |
| (BatchNormalization)            |                        |               |
|---------------------------------+------------------------+---------------|
| dropout (Dropout)               | (None, 256)            |             0 |
|---------------------------------+------------------------+---------------|
| dense_1 (Dense)                 | (None, 128)            |        32,896 |
|---------------------------------+------------------------+---------------|
| batch_normalization_1           | (None, 128)            |           512 |
| (BatchNormalization)            |                        |               |
|---------------------------------+------------------------+---------------|
| dropout_1 (Dropout)             | (None, 128)            |             0 |
|---------------------------------+------------------------+---------------|
| dense_2 (Dense)                 | (None, 64)             |         8,256 |
|---------------------------------+------------------------+---------------|
| dropout_2 (Dropout)             | (None, 64)             |             0 |
|---------------------------------+------------------------+---------------|
| dense_3 (Dense)                 | (None, 32)             |         2,080 |
|---------------------------------+------------------------+---------------|
| dense_4 (Dense)                 | (None, 7)              |           231 |
+--------------------------------------------------------------------------+
 Total params: 49,607 (193.78 KB)
 Trainable params: 48,839 (190.78 KB)
 Non-trainable params: 768 (3.00 KB)

